climate net/climate_net_params.pt (torch, 280158 bytes, 190 tensors)

inland.0.weight f4 [15, 6]
00000000: e84a 77bd 3ce0 3c3d d484 d93d d014 be3d
00000010: 14bd 85be f70f 1cbe 271c 3e3e d641 743e
00000020: 3abe 4dbe 1a44 5f3d 57ee d9bc 670c 533e
00000030: 8a15 4f3c 26bc d73d cdda 16bd 5de1 a0be
00000040: ea02 38bb 2cf9 9bbb 97de af3d dcb4 f0bc
00000050: 940d 07bb b2af 0abe ea06 bebc a57e 373e
00000060: e698 8b3e 4e57 7abe 6511 683e ff0e 88be
00000070: 7074 56be e354 a23d 96e9 053e 8add b23d
00000080: 67ac d13d ee6a 71bd 0321 943d deb5 2e3e
00000090: bc11 f9bb 3364 1c3b d37a e93a 81c8 8fbb
000000a0: 8358 c6bb 38c2 283b 22b5 cc3d 8f8b b33d
000000b0: 4d8c 94bd bad3 6cbe 4f62 36be 60d2 0cbe
000000c0: a590 803e d5a0 4ebe c69b 513e 4e6a 993d
000000d0: 8044 fb3c d27f 5bbe d871 bb3d 8ce1 443e
000000e0: 5870 98bd df3e fe3d 3f2f 0dbb 9e0a d9bd
000000f0: bf26 273d 672c 26bd bb48 04be 4620 093e
00000100: d16a d23d 7c6c c9bd 555d 263d bce8 4cbe
00000110: 78ff 583e 7843 603d 038d 1a3e a9e9 74bd
00000120: a865 4b3e ae98 673d 5203 90be 2415 26be
00000130: 911d 6abe f9c7 7ebe 247d 673e 1c78 97bc
00000140: 67c6 683e c193 cb3d 8f97 163e 35e6 7dbd
00000150: b683 f5bd a4e9 863c 11a1 063b 5580 2d3c
00000160: 02df f1bc 5a7e eabb
-0.06037417 0.046112284 0.10621038 0.092813134 -0.26120818 -0.15240465 0.18565427 0.2385324
-0.20092097 0.054508306 -0.026602907 0.206102 0.012639413 0.10533933 -0.03682976 -0.3142194
-0.0028077909 -0.004759928 0.085873775 -0.029383115 -0.0020607458 -0.13543585 -0.023196656 0.17919405
0.2726509 -0.24447367 0.22662885 -0.2657394 -0.20942855 0.07926347 0.13077387 0.087336615
0.10237961 -0.058939867 0.07232859 0.17061564 -0.007600991 0.0023863434 0.0017813094 -0.0043879156
-0.006053032 0.002575053 0.09995486 0.08766853 -0.07253323 -0.23127642 -0.17810939 -0.13752127
0.25110355 -0.2017854 0.20469579 0.07490979 0.030672312 -0.21435478 0.09152573 0.19226664
-0.07443303 0.124143355 -0.0021543053 -0.10597728 0.040808436 -0.04056969 -0.1291837 0.13391218
0.1027428 -0.09835145 0.040616352 -0.20010656 0.21191204 0.054751843 0.15092854 -0.05979315
0.19862998 0.05654209 -0.28127533 -0.16219002 -0.22862841 -0.24880971 0.22606331 -0.01848989
0.22731934 0.09940291 0.14706253 -0.06198712 -0.119880125 0.01646883 0.002054278 0.010589679
-0.029525284 -0.0071561756

inland.0.bias f4 [15]
00000000: 2bd8 493e 5d7a 32bc 691f 563d ee91 efbc
00000010: 9689 0e3c 4161 54be c940 dc3b 3465 d23e
00000020: 57a1 0cbd 7c99 ce3b 3843 213d 9d97 823e
00000030: 353b 313e e3ee a7bc 8029 473b
0.19711368 -0.0108934315 0.05227605 -0.02924439 0.008699795 -0.20740224 0.00672159 0.41092837
-0.034333553 0.006304918 0.039370745 0.25506297 0.17307742 -0.020499652 0.0030389726

inland.2.weight f4 [15]
00000000: 6040 423f 9dc3 4f3f 2969 533f d365 473f
00000010: d853 5d3f dfbf 783f 59a0 493f f9fe 5c3f
00000020: ca34 543f 8a2f 293f b87f 543f aac2 563f
00000030: 585a 563f a9a9 553f 2f6c 553f
0.7587948 0.8115786 0.82582337 0.77889746 0.8645606 0.9716777 0.78760296 0.8632656
0.8289305 0.66088164 0.83007383 0.83890784 0.83731604 0.83462006 0.833682

inland.2.bias f4 [15]
00000000: 50b6 ed3c 8775 4cbc 5fb2 133c be56 a33c
00000010: 9513 4abc 46bc 803a 7577 d73c d8da 36bb
00000020: df74 bfbc d4a0 733c 2d59 393a 630f 063c
00000030: 0883 cf3b 8d87 14bc 79c2 c53b
0.029017597 -0.012479193 0.009014695 0.019938823 -0.01233377 0.0009821735 0.026302079 -0.0027901437
-0.023371158 0.014869887 0.0007070478 0.008182379 0.006332759 -0.009065521 0.006035146

inland.3.weight f4 [15, 15]
00000000: 8c38 25bd 2bac b5bd 889e ba3d 540b 8f3d
00000010: 98be 7abd 69b0 913e 2138 fdbd 6622 163d
00000020: 8540 23bd 0505 cc3d 0c1a e0bd 427e 22be
00000030: 0ffa e2bc 5e01 823c 377d d6bb 71e2 88bd
00000040: b044 39bd f28a 763d 470b 14bb 49b1 e73d
00000050: 06be fa3d fc4c 2fbc 24db 9f3d 642d 473d
00000060: 7f89 ba3a f602 b73d 8d88 4fbd df0b 953d
00000070: 0ba2 dcbd 9b2c 8a3d 3dff e0bd 0aa9 4c3d
00000080: cb96 ac3d 03cd 473c 48ee 75bd ab16 153d
00000090: 35f8 a2bd fda2 c0bd 36dc dc3d 37ac 03be
000000a0: 87ef ef3d b200 83bd 1507 ea3d 9768 353d
000000b0: 5c16 a43c 04f1 a13d 9820 29bd 5045 ab3d
000000c0: 7421 86bc 0bac 953d 0d43 00be de3d 5ebd
000000d0: ffec 283e 941a cabd 61a3 1cbd ca9d 62bc
000000e0: c5f2 713c 8220 d03c b4cc 1cbe 27e3 e2bd
000000f0: a606 d23d d0c1 fb3c f466 3a3d baa3 bf3d
00000100: 0570 a73b 5c0b 723e 036c 943d ddde 63be
00000110: 151c cb3d e4e2 703c d7de 56bb ed5c c3bd
00000120: da7f 30bd a45f aa3c a02f 94bb 91b2 82bd
00000130: 8f5d 4bbb 61f4 603d b17b d7bd e3cd 33bd
00000140: 46d4 82be 7abf bfbc f0ea 363d 2d7c 263d
00000150: 02a2 a13d 1f38 9abc 2119 103d 324d fe3d
00000160: ff4e 7dbd d462 dd3d b5c3 db3c 3639 c43c
00000170: 93d0 35bc e031 07bb 0027 57bb cba3 5fbc
00000180: c66f 013d aac2 21bd 0b8f 3fbc 0281 923d
00000190: f252 4cbc bed9 99bb fac0 763c 588a ddba
000001a0: 44c5 4f3d 2ec8 2f3d ba2d 713c 68f4 a13c
000001b0: 6915 473d 8904 14be 5e3f 55be 7195 92bd
000001c0: 9c2a 8e3d 9757 2fbe 1afd 4cbd f1db e9bd
000001d0: 67d4 d73c 73ab 293e 7a99 183e eeb1 22be
000001e0: 0beb 383a e907 8c3c 4a3b 75bd 44a3 0fbd
000001f0: 5bc0 e93c 1fe9 ab3d eae4 dcbd f840 063d
00000200: c0ab 38bd 714e da3d 89f1 09bd 492b c4bd
00000210: 2f58 01bd 672d a73c 3888 db3d e7e7 31bd
00000220: 9732 143e 8d63 e13d f491 c13d 7107 fa3d
00000230: c9b0 8b3e 3692 a1bc 1f74 a4bd 8cfb d4bd
00000240: d5e8 d73d e298 a53d c96d 7bbd 10f4 9e3d
00000250: 692f 3f3b 9bfd 9f3d 0360 0dbb 98c0 5abc
00000260: 69ed 27ba 1e27 8e3b b135 713b f33c 94bc
00000270: d041 083d ce2a 573c 2404 403b 0c31 f4bb
00000280: 3249 bfbc 6e38 9b3c 4370 9cbc 7a51 57bb
00000290: 0bab 253b d43a b43b 15b1 09bd aa55 933d
000002a0: c2d2 123c 2608 a13d 6705 3fbe ba19 d1bd
000002b0: a1ec b13d 5168 033e 67bb 26bc 3348 9b3d
000002c0: 2818 acbc 02f9 89bd 5140 663c b106 06be
000002d0: 9f27 6b3d 6ead 32bc 8ada e93c 3c4d a4bd
000002e0: 43fc 143d 8d8f 823e 18dd 24bd c005 abbd
000002f0: 1679 883c 20be 093e 7f9f 113d 4df1 80bc
00000300: 7bd3 ccbc 8480 3a3d 3249 96bd 5552 ca3c
00000310: 90a8 67bc 40e1 f63d 3897 47bb 928e 223e
00000320: 297f f43d 8e7b 13bd 8591 423b ff80 82bd
00000330: ac4b 6a3b 0cc1 05be 9d7a 00bc 6a62 fe3c
00000340: c0b5 bcbd b994 d43b fe71 803c ac60 933a
00000350: 3eff 183c b623 2cbd 9ffc 103e 32b8 88bd
00000360: 1480 24bc f6ba ddbc f02c bbbc c4d6 3b3c
00000370: 2965 13bd 0048 d53d 344b 1d3d 8760 553d
00000380: fbcb 1f3d
-0.04033713 -0.08870729 0.09112269 0.069845825 -0.06121692 0.28454903 -0.12364221 0.0366539
-0.039856452 0.09961895 -0.10942468 -0.15868476 -0.027707128 0.015869793 -0.0065456885 -0.06683815
-0.04523152 0.060191102 -0.002258973 0.11313111 0.12243275 -0.010699507 0.0780547 0.048627272
0.0014231651 0.08936112 -0.050667334 0.07277655 -0.10773095 0.06746789 -0.10986183 0.049965896
0.08427199 0.012194875 -0.060041696 0.03639857 -0.07957498 -0.094060875 0.107841894 -0.12858663
0.11715608 -0.06396617 0.11427132 0.044289198 0.020030193 0.07907298 -0.04129085 0.0836283
-0.016373374 0.07308205 -0.12525578 -0.05425822 0.16496657 -0.098683506 -0.038241748 -0.013831565
0.014767353 0.025406126 -0.15312463 -0.11078482 0.10255174 0.030732065 0.04550834 0.093574
0.0051097893 0.23637146 0.07247164 -0.22252984 0.099174656 0.014702532 -0.0032786631 -0.095392086
-0.04309068 0.020797558 -0.004522279 -0.06381715 -0.0031031107 0.054920558 -0.10521639 -0.04389752
-0.25552577 -0.023406733 0.044657648 0.040645767 0.07892229 -0.018825589 0.035180215 0.124170676
-0.061842915 0.108098656 0.026826719 0.023953062 -0.011097091 -0.0020629093 -0.0032829642 -0.013649891
0.031600736 -0.039492287 -0.011691819 0.071535125 -0.012470948 -0.0046951463 0.015060658 -0.0016902192
0.050725237 0.042915516 0.014720375 0.019769862 0.048604403 -0.14454855 -0.20824954 -0.0715741
0.06941721 -0.17123257 -0.050046064 -0.114189036 0.026346399 0.16569309 0.14902297 -0.15888187
0.0007054067 0.017093616 -0.059870996 -0.03506781 0.028534105 0.08394074 -0.107858494 0.032776803
-0.04508567 0.10659493 -0.03367761 -0.095785685 -0.03157824 0.020407392 0.10719341 -0.04343405
0.14472423 0.11005316 0.094516665 0.122084506 0.27283314 -0.01972304 -0.08029961 -0.10399541
0.10542456 0.08085801 -0.061383996 0.07761395 0.0029172546 0.07812043 -0.002157212 -0.013351582
-0.00064059213 0.004338159 0.0036805684 -0.01809547 0.03326589 0.013132764 0.0029299343 -0.007452136
-0.023350332 0.018947806 -0.0190965 -0.003285496 0.0025278952 0.005500177 -0.033616144 0.071940735
0.008961381 0.07862882 -0.18654405 -0.10209985 0.086877115 0.12832762 -0.010176516 0.0758213
-0.021007612 -0.067369476 0.01405342 -0.1308849 0.057410832 -0.010905607 0.02854659 -0.08022544
0.036373388 0.25500146 -0.040249914 -0.08350706 0.0166593 0.13451433 0.035552498 -0.015740061
-0.025003185 0.04553272 -0.0733818 0.024697462 -0.0141393095 0.12054682 -0.0030455124 0.15874699
0.119383164 -0.036006503 0.0029688787 -0.0637226 0.003575067 -0.13061923 -0.007841733 0.031052787
-0.092143536 0.0064874557 0.015679356 0.001124402 0.009338198 -0.042026244 0.14158867 -0.066757575
-0.010040302 -0.027066689 -0.022848576 0.011464778 -0.035985146 0.104141235 0.038401797 0.05209401
0.03901289

inland.3.bias f4 [15]
00000000: ce48 ac3b abde 543d e7f5 4c3d aec1 f63b
00000010: 3bd1 f73d 8426 8c3c 990d 033c 5052 a03c
00000020: 9ccc 1dbd 0b21 773d 5bf2 94bc 9d13 dcbb
00000030: 3995 b23d 472f a8bb 7acd bebc
0.0052577024 0.051970165 0.0500392 0.0075304126 0.121004544 0.01710821 0.007998847 0.0195705
-0.03852521 0.060334247 -0.01818197 -0.0067162053 0.08719868 -0.005132589 -0.023291338

inland.5.weight f4 [15]
00000000: 2e96 413f 1b73 363f 0f10 393f 1e81 533f
00000010: f6f6 503f d145 543f a5c4 4d3f 29cb 3c3f
00000020: b18c bd3e 690f 4b3f 123f 433f 5fc7 503f
00000030: 6e03 4a3f 9fbb 283f 54d7 363f
0.7561978 0.71269387 0.7229013 0.8261889 0.8162683 0.8291903 0.8037818 0.737475
0.37021402 0.7932039 0.7626811 0.81554216 0.78911483 0.6591129 0.71422315

inland.5.bias f4 [15]
00000000: 5f20 653a 45cc 34bb 2e72 81bc 0ca6 1b3c
00000010: 811a 7b3a 0c00 053c 7a9f 2c3b 4907 bf3b
00000020: 1c96 37bc 31c7 5abb 7bf0 a83c f589 71bb
00000030: a6e8 96bc d6bc 873b 0568 0bbc
0.00087404804 -0.0027587574 -0.015801515 0.009500038 0.00095788395 0.008117687 0.0026340173 0.005829726
-0.011205222 -0.0033382887 0.020622483 -0.003685591 -0.018421482 0.004142384 -0.008508687

inland.6.weight f4 [15, 15]
00000000: 2829 c33d 10dd 82bc 95ac b93c 9e76 a13d
00000010: fc05 81bc ca81 bf3d dce1 b23c 3b00 f43b
00000020: 785f 1dbc d17d 2dbd c4d1 d13c 541e 38bd
00000030: fc2a 29be 14f8 e0bc 4b30 77bd dde1 8e3c
00000040: 07e5 a3bc 24f8 8ebc ec87 083c abc5 443c
00000050: 6903 583c 2a55 713c ec69 46bb 7331 223c
00000060: ec72 48bc 2074 f23c fe03 eebc b2f8 83bc
00000070: 0820 dc3a 4df4 67bc 1b26 973d 741a 6f3c
00000080: c9e7 56bd 6927 b23d e491 6b3d 759c 2abd
00000090: 38e5 b9bc 0182 143e 5cdd 39bd ab48 43bc
000000a0: 0d5f a5bc be82 413c f2ef d7bc 9f6e e9bc
000000b0: b287 26be 2d97 b6ba dc39 f73d 45b2 013e
000000c0: d4ea c1bd 03fd 5b3d 4fbc 02be d901 293e
000000d0: b18f aebd 7e43 a3bc 8855 373d f3c8 e1ba
000000e0: 5c1d 0dbd dc16 9abd f8f4 6bbd a46c a23d
000000f0: c55e c23d c3c7 ce3d f374 06be 2c42 0a3e
00000100: 7cb6 0bbe 1398 78bd 46c5 77bc 9b73 823d
00000110: fa2a 0bbe 8bb3 ce3d 1376 09bd e57e 653c
00000120: 28d7 07be 2c3f 3a3e 880a d9bc bf6e 19be
00000130: 3992 c6bb 956c f53d f4f1 b33d 8539 23bc
00000140: 16b5 f63d 91db 7e3a 666a d53d 4249 08bd
00000150: 88e8 b6bd 4fda 923c 37c8 a63c 2340 14be
00000160: 5877 ff3b d1e4 123e af68 703d 9138 47bd
00000170: 8f2e 723d 89fe d8bb ab3b fabb 1db3 49bd
00000180: 99ea 103c c4ba 62bc 03f3 b33c 7817 143d
00000190: 16de fb3b c567 88bd 8d50 f83c 5c8d f3bd
000001a0: 60e6 fabc 7023 bdbc 64bd 473b 3c7b 0b3c
000001b0: 6f55 0ebe d778 d03c 1865 933d 378d 8b3d
000001c0: e1da 9a3c a1c0 1c3d b42f 00bd 8683 ec3c
000001d0: c1fb 65be 668b 033e 48e2 6fbd 45ea d43c
000001e0: ba14 953b 4ca8 403b cef6 483b 4c4b 07bc
000001f0: 1f40 af3b b02a e33a 7f04 f93b df81 68bb
00000200: d22d 6d3b 49b2 ff38 4507 973c d5ec 75bc
00000210: b0b7 92bb 60f2 46bb c8ea ecbb faf3 36bc
00000220: af1f 01bc cdc3 763b d5ae 6739 712e a73b
00000230: 06ea 11ba 11ca 303c 8de1 62bb df3a 883a
00000240: edde 363c 4618 cc3b f640 16bb 6e7b 8e3b
00000250: 1cb8 b7bc a1b1 583a 0fa3 533d 6726 b73d
00000260: 0615 003d 58f5 f8bc 45a9 5fbe 5259 b23d
00000270: b342 f6bd dc97 fe3d cebd 96bd 24e9 2bbe
00000280: 6293 923d 675f 3e3d 0f5c 8fbd 5c12 b1bc
00000290: 3e43 35bd abb1 1b3c 810e 86bc 5ae5 883c
000002a0: 415c 263c 2c25 c0b9 7281 4f3c b4b5 293c
000002b0: c5bf d1bb 54c4 593b 58fb 4b3c 6ddd 3c3c
000002c0: 710c febc 0688 09bc fbde e8bc 8b79 56bc
000002d0: d56d 4c3d 9514 23bd 2d21 2f3d 22cd ef3d
000002e0: 488c a23d 9088 8cbc 498d 13be 7952 093d
000002f0: 0c2f 31bd 094a ea3a 2873 9ebd 6de7 08bd
00000300: d68f c83b c8c6 29bd cdd6 97bd 0417 0fbd
00000310: 4210 a93b 4350 8fbc 6189 3b3c a083 093d
00000320: 253c a8bb 8dd1 63bc e2b9 02bd 5a7a a0bc
00000330: db4a 1cbd 06dc d63c 2032 0dbd 7052 66bc
00000340: 3c52 a43c fd6c 913c 97e8 563d 93d2 f1bd
00000350: dd99 0cbe 1c69 933d 2775 643d 24bb dcbc
00000360: 0175 8d3c bb38 c0bc 4ea2 d23c fceb 2abd
00000370: ab02 e23c dcf3 c3bd 8a42 593d a498 d13d
00000380: bcba 3bbc
0.09529334 -0.015974551 0.022665301 0.078839526 -0.015749924 0.09350927 0.021836214 0.0074463165
-0.009605281 -0.042356316 0.02561272 -0.0449508 -0.16520303 -0.027462043 -0.06034879 0.017441684
-0.02000667 -0.017452307 0.008333188 0.012010018 0.013184407 0.014729777 -0.0030275537 0.009899485
-0.012234431 0.029596388 -0.029054638 -0.016109798 0.0016794214 -0.014157367 0.07380315 0.014593709
-0.05246714 0.08698923 0.05751218 -0.041653115 -0.022692308 0.14502718 -0.04537712 -0.011919181
-0.020186925 0.0118109565 -0.026359532 -0.028495131 -0.16262701 -0.0013930552 0.12071583 0.1266566
-0.09468618 0.053708088 -0.12767147 0.16504611 -0.08523501 -0.019929644 0.044759303 -0.0017226025
-0.034451827 -0.07523891 -0.057606667 0.07930878 0.09490732 0.10096695 -0.1313055 0.13501805
-0.13643831 -0.060691904 -0.015122717 0.06369706 -0.13590613 0.10092839 -0.03355987 0.014007305
-0.1326567 0.1818816 -0.02649428 -0.14983653 -0.0060599116 0.11983601 0.08786383 -0.009962444
0.12046258 0.0009722049 0.104206845 -0.03327299 -0.089310706 0.017926363 0.020359142 -0.14477591
0.0077962093 0.14345099 0.058693584 -0.04863793 0.059126433 -0.00662214 -0.0076365075 -0.04924308
0.008844995 -0.013838474 0.021966463 0.036155194 0.007686387 -0.066604175 0.030311847 -0.118921965
-0.03062743 -0.023088187 0.0030477876 0.008513268 -0.13899778 0.025448246 0.071970165 0.06814044
0.018903198 0.038269643 -0.031295493 0.028871309 -0.22459318 0.12846145 -0.058565408 0.025990615
0.00454959 0.0029397188 0.0030664685 -0.008257698 0.00534822 0.0017331447 0.007599413 -0.00354778
0.003619064 0.00012192556 0.018436084 -0.015010078 -0.0044774637 -0.003035687 -0.0072301365 -0.011166567
-0.007881089 0.0037653327 0.00022095007 0.005101972 -0.0005566183 0.010790364 -0.0034619302 0.0010393522
0.011161548 0.0062284796 -0.0022926903 0.00434821 -0.022426657 0.0008266215 0.051669177 0.089428715
0.03127005 -0.030390427 -0.21841915 0.08708443 -0.120244406 0.124313086 -0.07360421 -0.16788155
0.07157017 0.0464777 -0.06999981 -0.0216152 -0.04425358 0.009502809 -0.016364338 0.016710926
0.010153831 -0.0003664879 0.0126651395 0.010358263 -0.0064010345 0.0033228593 0.012450062 0.011527401
-0.031011792 -0.008394247 -0.028426638 -0.013090502 0.04990943 -0.03981455 0.04275625 0.11709048
0.07936913 -0.017154962 -0.14409365 0.033525918 -0.043257758 0.0017874847 -0.07736808 -0.03342383
0.006120662 -0.04144934 -0.07414017 -0.03493406 0.005159409 -0.017494326 0.011446328 0.033572793
-0.005134123 -0.013904941 -0.031915553 -0.019589592 -0.038157325 0.026227962 -0.03447163 -0.014057741
0.020058744 0.017752165 0.05246791 -0.11807742 -0.13730569 0.071977824 0.055775788 -0.026944704
0.017267706 -0.023464551 0.025712159 -0.04172896 0.027589163 -0.09567997 0.053041972 0.10234192
-0.011458095

inland.6.bias f4 [15]
00000000: d96d 74bc a411 04bd c6ea 4c3c d77c d43c
00000010: 9bae 87bc 2f15 6a3c aa13 d9bc 4d17 35bd
00000020: d14a 1c3c 2974 a6bb 0894 f8bc 5f91 6abc
00000030: 6439 3abc b09f 13bd 5d92 c0bc
-0.014918768 -0.032243386 0.012507146 0.025938435 -0.01656275 0.014287277 -0.026498634 -0.044211674
0.009539322 -0.0050797653 -0.030344024 -0.014316886 -0.011366222 -0.03604096 -0.023507291

inland.8.weight f4 [15]
00000000: 9dae 243f e420 ad3e b805 343f 846e 323f
00000010: 832a 1e3f 6b64 4e3f 1fd0 263f 2ad9 023f
00000020: cb2c 153f 906a 8d3e 3e74 453f a73e 083f
00000030: 366c 323f 009c 0e3f f158 2b3f
0.6432894 0.33814156 0.70321226 0.69699883 0.6178362 0.80621976 0.6516132 0.51112616
0.58271474 0.27620363 0.77130497 0.532206 0.69696367 0.5570679 0.6693259

inland.8.bias f4 [15]
00000000: 4473 4d3c 2b86 bc3d a121 003c 52ea bb3b
00000010: 4d3e 173c b551 4fbc 28bd 9f3c 925d 873b
00000020: 0999 923a 3cd3 443d a64d 2b3c cb5d 073c
00000030: 99e2 aabd 8535 96bb 1c4a 7a3c
0.0125396885 0.09205278 0.007820518 0.0057347203 0.009231162 -0.012653758 0.019499376 0.0041310275
0.0011184524 0.04805301 0.010455525 0.008262108 -0.08344001 -0.0045840167 0.015276458

inland.9.weight f4 [15, 15]
00000000: eb4f c23c 7415 4ebc 09db 70bc f5a0 22bd
00000010: 10f9 babd 3e87 3a3d 38b6 aebc ef11 3fbd
00000020: 1278 c2b9 ca9b b7bb c324 c53c 6ac1 a0bd
00000030: ef02 a3bc 9aa4 57bc 1eb1 513c 27d6 89bd
00000040: d616 84bd 5dfe 2cbd 126b c73d e35f 1a3e
00000050: 47fd 783d 1f1b d1bc f564 b5bd a9ad a9bc
00000060: 4a26 85bc 22a6 9bbd 17ea a83c 6d8b ecbd
00000070: 9f19 acbc 8fda 6a3c e0e7 09bd 3e12 bb3b
00000080: c5dd f43c 9254 783d 318b 0abe 3cf1 353d
00000090: e8b2 85bb b305 26bd 8645 82bd d5c0 5f38
000000a0: c4d7 443d bf14 be3c bdae f5bd 994e 18bd
000000b0: 0320 27bd 875c 273d 09d1 3f3d b77a 013d
000000c0: 0fa8 e13c d97e 0dbc f1a9 e93d 8bcd 463c
000000d0: 2038 a9bc ca20 2f3d 8d78 1ebd d516 a0bd
000000e0: a0a6 bbbc 91c8 ef3d 8008 82bd 3ed1 a1bd
000000f0: de30 81bd 5493 02bd edb0 5abd e48b a73d
00000100: 99e9 fa3c a5cf 21bd a85c e83d a36f f7bc
00000110: b144 b23c d050 af3c d66c c8bd 99b7 c03c
00000120: ff30 513e 9538 10bd dc54 bd3c 638b bebd
00000130: 5ee1 3cbc f7b9 68be 376b 84bc f785 373d
00000140: 4189 52bd 7e25 e73a 1174 91bd df8d 89bc
00000150: 2a3b 30bc 3279 fc39 af4d a73d 9d46 ebbc
00000160: 4f96 4a3b 66e9 c9bd 5a2e 49bd d9b4 92bb
00000170: a4f9 963c a30b 8fbc 58a4 adbd c519 2d3d
00000180: 6337 0c3d f9a9 7f3d 03d2 c0bd be4d dfba
00000190: 864f e03d 360c c23d d5b3 34bd eadf a93a
000001a0: 6c25 6a3b 9d01 3dbd 0900 f4bc 9cff a03c
000001b0: a1c0 6fbd 210d 5f3c e92e ca3d b586 2dbd
000001c0: dcf0 713d 00e4 bcbc a9e7 a3bb 735d f83c
000001d0: 5085 943c 7a01 8f3d 9a30 f4bc 7425 893c
000001e0: 037e 15bd 53ab 553c cfb1 f53c e632 67bd
000001f0: c8cb 21bd d844 c83d 9627 4dbd 86be 16bd
00000200: f381 003c d58b 873c b318 9a3c 4cd1 893c
00000210: 4470 15bd efa9 733d ce7d 653c ce16 8b3d
00000220: 40b3 f03b d26d 6c3c edd8 f0bc 24a2 a1bc
00000230: f566 673d a91a 61b9 257a afbd eeb6 96bd
00000240: d27e 10bd a40f 363c 857a 113d dd6b f43c
00000250: 80fd a83d 1515 96bc 1696 86bc 6bf8 67bb
00000260: e7a3 be3d 87eb 10bd 5b3e f7bd 8313 ea3d
00000270: 0923 19bc b087 6e3d 8e28 c23d cfe0 a9ba
00000280: 313c ae3d c6c2 80bc 72a0 b7bc 3300 6d3c
00000290: 7097 083e bda4 283e 676e b9bd 3c1e 9c3d
000002a0: 1883 dcbd 7c47 e5bc 507d 9d3d 11eb d5bd
000002b0: dc6e 8fb7 4470 533d 3791 3cbc a975 dcbd
000002c0: 1611 0c3e 9a14 9c3b ad01 ddbb 584c 1dbd
000002d0: c8b7 483b 01c1 fd3a d703 88bd aeff 9a3d
000002e0: e10d 553d 5d58 64bd 2401 94bd fb1d d23d
000002f0: e707 993b 5133 b63b 6385 e9bc cc90 c7bd
00000300: 9521 1f3e 2eff a83d 68e0 b0bd 7c38 9f3d
00000310: 7445 f3bd 6f27 05bd 5845 8d3c d99a 6e3d
00000320: 41e2 98bc 55f9 84bc 9406 f13d 702a dabd
00000330: 4c1a e3bc 3044 613c fd3d a8bc 26e4 10bd
00000340: 8346 c1bd b642 bbbb 66c4 9ebd 278f bdbc
00000350: eab3 8c3d c0dd 103d a6f0 113d e5e3 953d
00000360: 6931 d5bc fb01 893b f162 5bbd 38c9 bebc
00000370: c13f 66bd 1626 833d 2447 3cbd cca4 ddbc
00000380: 6554 bebd
0.023719748 -0.012578357 -0.01470066 -0.03970428 -0.09129536 0.045539133 -0.021327123 -0.046647962
-0.00037092023 -0.0056032883 0.02406538 -0.07849391 -0.01989886 -0.013161803 0.012798576 -0.067302994
-0.06449668 -0.042234767 0.09737219 0.1507564 0.06078842 -0.025525628 -0.08857147 -0.02071269
-0.01625361 -0.07600047 0.020619435 -0.11550031 -0.02100831 0.014334335 -0.0336684 0.0057089617
0.029890904 0.060627528 -0.1352966 0.044419512 -0.004080165 -0.04053278 -0.06360917 5.3346932e-05
0.048057333 0.023203252 -0.11996219 -0.03718433 -0.040802013 0.040859725 0.04683021 0.03161117
0.027545957 -0.0086362 0.11409367 0.012133966 -0.020656645 0.04275588 -0.038689185 -0.07816855
-0.022906601 0.11708177 -0.063492775 -0.07901238 -0.06308149 -0.031878784 -0.053391386 0.08180979
0.030628966 -0.039504666 0.11345798 -0.0302046 0.02176127 0.02140084 -0.09786384 0.023525046
0.20428847 -0.03521021 0.023111753 -0.0930393 -0.011528341 -0.2272719 -0.016164405 0.044805493
-0.051400427 0.0017635075 -0.07102216 -0.016791282 -0.010756293 0.00048155483 0.08169114 -0.028720194
0.0030912345 -0.0985897 -0.04911647 -0.004477125 0.018429585 -0.017461604 -0.08478612 0.042260904
0.03423251 0.062417958 -0.094150566 -0.0017036719 0.10952668 0.09474985 -0.044116814 0.0012960408
0.0035727872 -0.046144117 -0.029785173 0.019653134 -0.058533315 0.01361397 0.09872229 -0.042364795
0.059067592 -0.023057938 -0.0050019813 0.030317998 0.018129975 0.069827035 -0.029808331 0.016741492
-0.036497127 0.013041335 0.029992012 -0.056445025 -0.03950098 0.09778756 -0.05008658 -0.03680279
0.007843482 0.01654617 0.018810606 0.016823433 -0.036484018 0.059488233 0.014007045 0.06791459
0.007345587 0.01443048 -0.029400313 -0.019730635 0.05649467 -0.00021467604 -0.08568219 -0.0735911
-0.035277195 0.011112127 0.035517234 0.02983659 0.08251476 -0.0183206 -0.016428988 -0.0035395871
0.09308606 -0.035380866 -0.1207244 0.11429503 -0.009346732 0.05823487 0.094803914 -0.0012960675
0.08507574 -0.015717875 -0.022415373 0.0144653795 0.13339019 0.16469093 -0.09054261 0.07622954
-0.10767192 -0.027988188 0.07689917 -0.10445226 -1.7098551e-05 0.051620737 -0.011509231 -0.107646294
0.13678393 0.004763198 -0.0067445845 -0.038402885 0.003062712 0.0019359888 -0.066413574 0.07568298
0.05201519 -0.055748332 -0.0722678 0.102596246 0.0046701315 0.0055603166 -0.028505987 -0.09744415
0.15540154 0.08251797 -0.08636552 0.077744454 -0.118784815 -0.03250831 0.01724498 0.058253143
-0.018662574 -0.016232172 0.11768833 -0.106526256 -0.0277225 0.013749167 -0.02053737 -0.03537383
-0.09437277 -0.0057147397 -0.07752304 -0.02313955 0.068702534 0.035367727 0.03562989 0.07318858
-0.026024537 0.0041811443 -0.053561155 -0.023289308 -0.056213144 0.06403749 -0.045966282 -0.02705612
-0.09293441

inland.9.bias f4 [15]
00000000: 434c c0bb a195 6c3d ee37 73bd a025 8fbd
00000010: f8a2 f6bd 2d8b e83d a0dd 81bd afc1 c0bd
00000020: 9194 89bc e3c2 aabb 600b b3bd 0da6 9e3d
00000030: 9bba 12be 7a87 053d e70b 52bc
-0.005868466 0.057759885 -0.05937951 -0.06989598 -0.120428026 0.11354671 -0.063411 -0.09411942
-0.016794475 -0.0052112206 -0.08742404 0.077465154 -0.14328997 0.032599904 -0.012820221

inland.11.weight f4 [15]
00000000: ff96 393f ecd1 3d3f 44d5 043f 5ec6 463f
00000010: 9655 963f 2920 853f c1d0 4a3f dbaa 823f
00000020: 764d 8e3f f442 603f ae2c 7c3f 59bd 823f
00000030: df2b 973f 854f 283f cb18 5c3f
0.72496027 0.7414844 0.5188792 0.77646434 1.1744869 1.040044 0.79224783 1.0208391
1.1117389 0.8760216 0.98505676 1.0214034 1.1810263 0.6574634 0.8597533

inland.11.bias f4 [15]
00000000: d2c4 263d 9197 debd cd7c 9dbc f281 d8bd
00000010: 5d2b a2bd 31de bebd 3e9b 8b3d db4a 913d
00000020: 21fe ac3d cc49 993d cbb2 9e3d 6070 4d3d
00000030: 02d6 a3bd 34ed dabd 74a4 c2bc
0.040715046 -0.10868753 -0.019224549 -0.1057166 -0.07918427 -0.093197234 0.068167195 0.07094356
0.08446909 0.07484779 0.07748946 0.050155997 -0.07999803 -0.10689774 -0.023760058

inland.12.weight f4 [2, 15]
00000000: 93ba 573e 1bfc 4c3d bf0b 41be e991 7abc
00000010: 7ceb f0be f9fb f7be 90fc ad3d 0edb 0d3f
00000020: 3d0c fd3e 3aaf d73e c33a 7f3e 0069 0c3f
00000030: 1c8d ebbe 1221 203d 41a2 d53e f9fe b0be
00000040: 7e9b b33e b968 c53c 12bc 923e 8d99 0e3f
00000050: bc73 dc3e 9207 6dbe 8c56 d0be e983 05bf
00000060: e578 d6be 6e6f e6be 25a1 98be 1350 173f
00000070: 537a 953e 8931 88bb
0.21067266 0.050045114 -0.18852137 -0.015293577 -0.4705466 -0.48434427 0.08495438 0.55412376
0.494234 0.42125875 0.2492476 0.5484772 -0.46006095 0.03909404 0.41725352 -0.3456953
0.3507957 0.024097787 0.2865911 0.5570305 0.43057048 -0.23147419 -0.4069103 -0.52154404
-0.4188911 -0.4500689 -0.29810444 0.5910656 0.29194888 -0.0041562957

inland.12.bias f4 [2]
00000000: eb9c 57be a290 3dbe
-0.21055953 -0.18512204

coastline_left.0.weight f4 [15, 6]
00000000: 6db8 bcbe 77b3 8d3e d660 d9bd d8da 513d
00000010: f37f 953c 4531 06be 21f3 88bd cb6a 433e
00000020: f5e0 cd3d e122 93bd a413 31be 1ec3 e93d
00000030: 8a12 663b 79f6 203b 4869 b6bd 5e67 61bc
00000040: ff62 e93c d610 e838 c3e1 0abd e9ca b8bd
00000050: 0661 bcbc 772c 7cbc 9aab 72bb 7c69 df3b
00000060: da28 4abe e607 1c3d 74a8 bb3d e56a 0a3e
00000070: 0975 cb3d 4bea 0ebe 721c f0bc 81c9 0c3e
00000080: ece7 823d 2f6a 63bd d6a6 9abd 9312 81bd
00000090: f7c2 cbbb c484 f23b 8269 0cbe f277 7c3c
000000a0: 6709 05bd 6a13 2c3d e02e a0be d14b 8c3d
000000b0: bdac 053e 3ee6 0cbe c028 57bd d2cb 1ebd
000000c0: b5f4 5e3e d767 78bb 3443 283e 40ae 3dbe
000000d0: a4ea 59be da16 25bd 0fbb b1bb b414 19be
000000e0: ba6a 6ebd 9813 403b 05f1 6e3d c9e8 1dbd
000000f0: 1cfe b8be 7699 383e 5367 543e 4240 413d
00000100: d64c 1f3e fa63 723d 4461 93bc 7115 c53a
00000110: feef d2bc 43d3 25bd af69 913d 2f88 87bb
00000120: 4df5 893d 3f8e 443d ff00 153e 0289 2e3e
00000130: 8f49 883e 3db2 2b3e fd93 00bb 68c3 6a3e
00000140: 73e6 153e 5e8f 8fbe db68 5dbe eea9 05be
00000150: 5c7b 863d 0254 47be 00ad e63d 9df3 aabd
00000160: 6364 0bbd b8be bebd
-0.36859456 0.27675983 -0.10614173 0.051234096 0.018249488 -0.13104732 -0.06686998 0.19083707
0.10052673 -0.07184387 -0.17292649 0.11414169 0.0035106265 0.0024560972 -0.089067996 -0.013757555
0.028489588 0.00011065758 -0.03390671 -0.09023077 -0.022995483 -0.015391461 -0.0037028552 0.0068179946
-0.19742146 0.03809347 0.09162989 0.1351734 0.09934432 -0.13956563 -0.029310439 0.13748743
0.06391892 -0.055521186 -0.07551353 -0.06302371 -0.00621831 0.007401081 -0.13712123 0.015409457
-0.03247967 0.042010702 -0.31285763 0.06850398 0.13054176 -0.13759705 -0.052529097 -0.038768597
0.21773036 -0.003790369 0.16431886 -0.18523502 -0.21280915 -0.040304996 -0.0054239105 -0.14949304
-0.05820725 0.0029308554 0.058335323 -0.03855208 -0.3613137 0.1802729 0.2074254 0.04718042
0.15556654 0.059177376 -0.017990716 0.0015036297 -0.025749203 -0.040484678 0.07100236 -0.0041361074
0.067362405 0.04798722 0.14551161 0.17044452 0.2661862 0.16767211 -0.0019619458 0.22926104
0.1463869 -0.28039068 -0.2162203 -0.13053104 0.06566498 -0.1946564 0.11263466 -0.08347247
-0.034031283 -0.093137205

coastline_left.0.bias f4 [15]
00000000: 799d 74be 029d 153e 0dd2 4fbc 0d60 b83c
00000010: 2c34 dfbd 8ef0 8bbe 0a15 03be 6987 95bd
00000020: 6427 96bc cef7 64bc 6990 a73d 6c68 81bd
00000030: 86da 8abe 1209 733d 61ef ce3d
-0.23888196 0.14610675 -0.012684357 0.022506738 -0.10898623 -0.27331966 -0.12800995 -0.07301218
-0.01832933 -0.013975097 0.08181841 -0.06318745 -0.27119845 0.059334822 0.10104252

coastline_left.2.weight f4 [15]
00000000: 7529 583f a7f8 513f 3e67 4d3f 90b5 453f
00000010: 78fb 563f 4e13 533f 3734 4d3f 0ba4 433f
00000020: fad3 543f e385 4d3f 4b59 563f 9b20 4f3f
00000030: 19a4 573f e7cb 553f cfe1 5e3f
0.8443826 0.8202004 0.8023566 0.7723017 0.8397746 0.8245133 0.801578 0.76422185
0.8313595 0.8028242 0.8373 0.80909127 0.8423477 0.83514255 0.87063307

coastline_left.2.bias f4 [15]
00000000: 5921 853c ebae ecbc 1b2f d9ba 334d 413c
00000010: 437c 9739 0fdf ee3b d510 00bc ae4c 363a
00000020: 4237 5bbc 6f99 653c e58e e4bb a29d 803c
00000030: 04b9 ebbb ae49 08bd dd63 933b
0.016251253 -0.028892001 -0.0016569825 0.011798191 0.00028893547 0.0072897743 -0.007816513 0.0006954175
-0.013379874 0.014013632 -0.006975042 0.015700165 -0.0071936864 -0.03327339 0.0044979886

coastline_left.3.weight f4 [15, 15]
00000000: c43c 963b bd1d c7bc 2275 0a3c bfc7 023c
00000010: 1d9d 553c 5738 1d3d 3afd 323c 4944 403d
00000020: 383e a33c 38f1 90bc 3ff6 1abd c7bc fa3a
00000030: 7526 793d 0188 2fbd 70ff e0bc d333 8abd
00000040: fd13 733d 1351 993d 7f6b c63d b4eb e43c
00000050: 9dae 913d 5dd5 023d 233e fbbd c581 243e
00000060: 91d0 a23c 6caf b13d 0de8 113d c00d 333d
00000070: ddce 7f3d 9e9b 12be 8caa 02bd cfb4 0bbc
00000080: fa78 2cbb 43d1 3bbb 13f5 55bc f940 aa3b
00000090: 4f77 94ba 2e8d d33c e01c ef3b 06e5 2dbb
000000a0: 9d12 c3bc 766c c7ba eb91 d73c 469b 18bd
000000b0: 99a5 cf3c 58a9 9b3c ec3d d339 9b26 e1bb
000000c0: cbd4 dfbb 1fb4 9dbd c772 973d a3f8 be3b
000000d0: 4cbc be3c a2bd 0abd 2038 b5bc 32dc 81bd
000000e0: 17e2 dbbb 066e 8f3d e145 d3bb 0995 10bb
000000f0: 06d2 d23c 45c7 3b3b 6b09 183d 4dc6 02bc
00000100: 99c0 60bc bbc3 d03c 6975 243d 6da3 4c3b
00000110: 7e64 e93c 4793 ee3c 3441 9a3b add3 33bd
00000120: 25c6 6ebc e088 dd3b 58ab e83c 0900 a63b
00000130: 1d3a 98ba 4d5b 9a3d 0697 4dbc c723 9f3c
00000140: b195 86bd c969 6a3d 7906 17bd d919 24bd
00000150: 798d ee3b b79a 10bd 5b48 00b9 8c10 8cba
00000160: c666 29bd f872 17bd b66d 173e a06e 9c3c
00000170: 1af7 1e3c 81ad cbbc f7b9 48bd c32e bd3d
00000180: 30e3 393b 76d1 0a3d 4495 103e a221 60bc
00000190: 3006 4cbd b944 9ebd 40fb bd3d 4b0e 723d
000001a0: 0cbc b9bc 0edb 8c3c a965 bebb bcc6 983a
000001b0: 0087 58bc 2bf7 edbc e1b6 693d f66e adbb
000001c0: d3a3 0c3d 7ee0 3f3c c0f7 b339 2670 96bd
000001d0: 0d73 933a e86e 823d cb37 64bc ec93 e53c
000001e0: 9f01 e5bc 8a64 643d 25e2 d33c 699b abbd
000001f0: 29aa 763d a834 b5bd f2d4 803c cddd 073c
00000200: d613 2a3d c948 07be 6394 12be 0c0f 773c
00000210: c202 003e 02e8 993d 8130 e5bd 7b4a 4c3c
00000220: ce2a 38bc b8c9 2d3d ef28 4dbd e661 09bb
00000230: c9f0 d1bc f01d 083d 7ed4 0fbd 3c1d bf3a
00000240: a23d 113d 3d5f 1a3c 3906 093d 4963 e4bc
00000250: 8568 da3c 1308 c53c f475 aebc b09a 60bc
00000260: 87f3 9d3c f992 813c 2dd7 943c 79a3 d4bb
00000270: 0185 443c 2784 1ebd 67ca 0a3b 7508 bb3c
00000280: 04f1 69bc 8462 a5bc 026f ac3c 73a8 a8bd
00000290: 11f7 53ba d1ad 843c f01b 083e 4fa7 4d3d
000002a0: 0a68 903c a228 743d 43c5 09bd 866b 0a3e
000002b0: aa84 b0bd 6990 91bd c8d3 7e3c 4270 36bd
000002c0: 25b0 34bd 346c 133e 3d35 d53d 4da7 a63d
000002d0: 75ec 04be e73f b9bc ed8b 68bd b8eb 683d
000002e0: 31c4 833c 62c2 7a3d f679 133e 4610 8b3d
000002f0: 0336 1bbd 4b81 8cbd 7d7b d53d c181 b3bd
00000300: 082f 8a3d 6cb7 c8bc 1a36 99bd 49a1 ee3d
00000310: 5289 d23d e906 30bc 26fa 37bc ec56 a6bd
00000320: 001b 553c b874 933d 279d 56bd db41 533d
00000330: c1ab 41bc 6c9b 023c faf0 b0bd 0fcf 833d
00000340: f01b 093c c063 1a3e 3268 723b f505 35bc
00000350: 319b 443d 8a43 3a3a 76c6 373c 5fa7 c3bb
00000360: dcda 493c 7ad6 24bc 6623 8c3c 46b7 a1bc
00000370: 220b c4bc 8938 303d fdb5 ef3c bfdc 9abc
00000380: 518f d4bc
0.0045848805 -0.024306173 0.008450778 0.0079821935 0.013037947 0.038383808 0.010924632 0.04694012
0.01992713 -0.017693147 -0.037832495 0.0019129746 0.06082769 -0.042854313 -0.027465552 -0.06748166
0.059345234 0.07486167 0.09688472 0.027944423 0.07113383 0.03194176 -0.12267711 0.16065128
0.019874843 0.08676037 0.03562169 0.043714285 0.06245314 -0.14317176 -0.031900927 -0.008526995
-0.0026317225 -0.0028658665 -0.0130589185 0.0051957336 -0.0011327061 0.025824156 0.0072971433 -0.0026534214
-0.023812586 -0.0015214819 0.026314696 -0.037257455 0.025347518 0.019001648 0.00040291192 -0.006871057
-0.006830787 -0.07700371 0.07394939 0.0058279797 0.023283146 -0.033872254 -0.022121489 -0.06340827
-0.0067103016 0.07003407 -0.006447539 -0.0022061488 0.025734913 0.002865271 0.037118357 -0.007981849
-0.013717794 0.025483957 0.040151034 0.003122534 0.028490301 0.029122962 0.00470748 -0.04390304
-0.0145736085 0.0067607015 0.028402016 0.005065922 -0.0011613999 0.075369455 -0.012548214 0.01942624
-0.0657152 0.05722979 -0.036871407 -0.040063713 0.0072800484 -0.035303798 -0.00012233986 -0.0010686084
-0.041357778 -0.036974877 0.14787945 0.019095719 0.009702468 -0.024863007 -0.049005475 0.09237435
0.0028364174 0.033891164 0.1411944 -0.013679894 -0.04981059 -0.077279516 0.09276438 0.059095662
-0.022672676 0.017194297 -0.0058104587 0.0011655907 -0.01321578 -0.029048523 0.057059173 -0.0052927686
0.034335922 0.011711238 0.0003432613 -0.07345609 0.0011249498 0.0636881 -0.013929318 0.028024636
-0.027954875 0.055759944 0.02586467 -0.083792515 0.06022087 -0.08847934 0.01572654 0.0082926275
0.041522823 -0.13211359 -0.14314418 0.015079271 0.12501052 0.07514955 -0.11190892 0.012468929
-0.011240674 0.042428702 -0.050087865 -0.0020962893 -0.02562751 0.033231676 -0.035114758 0.0014580856
0.03545917 0.009422121 0.0334532 -0.027879374 0.026661167 0.024051702 -0.021296479 -0.013708755
0.019281162 0.015817152 0.01816901 -0.006489214 0.011994601 -0.03870025 0.002117777 0.022831181
-0.014278654 -0.020188577 0.021049026 -0.08235254 -0.0008085827 0.016196163 0.13291907 0.050208386
0.017627735 0.059609063 -0.03363539 0.1351758 -0.08619054 -0.07107622 0.015553422 -0.04454065
-0.044113297 0.14396745 0.10410545 0.08137379 -0.12980826 -0.022613479 -0.05677407 0.056865424
0.016084762 0.061220534 0.14401993 0.06790213 -0.037893306 -0.06860598 0.10423944 -0.08764983
0.06747252 -0.024501525 -0.07481022 0.116518565 0.10280098 -0.010743835 -0.011229074 -0.08122048
0.013006926 0.07199997 -0.052395966 0.051576477 -0.0118207345 0.007971626 -0.08639713 0.06435978
0.008368477 0.15077114 0.0036988375 -0.011048784 0.047999565 0.0007105401 0.01121675 -0.00597088
0.012320247 -0.010060901 0.017106723 -0.019740712 -0.02393109 0.043022666 0.029261583 -0.018904088
-0.025947245

coastline_left.3.bias f4 [15]
00000000: ae8c 96bc 9032 a3bd 6e3a 0ebd 1ad1 43bd
00000010: ada5 93bb 9165 96bb 6599 713c 6156 763d
00000020: 15ba 27bc 4e8a 74bd 7449 923c 3e05 34bd
00000030: d5b6 be3d e563 b2bc eeac 46bc
-0.018377628 -0.079686284 -0.03472369 -0.047806837 -0.004505834 -0.0045897444 0.014746045 0.06014097
-0.0102372365 -0.05970221 0.01785729 -0.04395031 0.09312216 -0.021776149 -0.012126191

coastline_left.5.weight f4 [15]
00000000: bc88 413f f736 513f 9cea 423f 8daf 493f
00000010: 7016 403f 0e6a 3e3f 5a38 533f 4999 403f
00000020: e375 4c3f 432f 3c3f 8ea0 4b3f 82e8 663f
00000030: a16f 493f 3600 543f 34e1 3f3f
0.75599265 0.81724495 0.76139235 0.78783494 0.75034237 0.74380577 0.8250786 0.75233895
0.7986738 0.73509616 0.7954186 0.9019853 0.7868596 0.8281282 0.7495301

coastline_left.5.bias f4 [15]
00000000: 4d72 2b3b dd74 12bc 68a0 163c a4ba 5c3b
00000010: ae8d 54bc efd9 eb3a bdb7 8b3c dddb ba3c
00000020: 7a48 a5ba a7aa e73c efb4 77ba 63e1 22bd
00000030: f8a7 80bc 6be1 abbc 039d 31bb
0.0026160658 -0.008938995 0.009193517 0.0033680582 -0.012973232 0.0017994026 0.017055387 0.022809917
-0.0012610101 0.028279616 -0.00094492635 -0.039765727 -0.015705094 -0.020981511 -0.0027101643

coastline_left.6.weight f4 [15, 15]
00000000: b6ca 1fbd c217 a23d d6eb 24bd ac19 37bd
00000010: 894f ae3a ad16 783c 4299 36bd 0602 23bd
00000020: d71e a9bd 094c 68bd 78b2 a0bd 0e3a 603c
00000030: 7414 49bc 70b2 b0bc 4020 20bd 0dd6 1bbb
00000040: bf06 5ebc ee88 833c cdd1 6c3d 2667 173d
00000050: f817 fa3c 5dd5 e7bc e320 d7bc 3eda 7bbc
00000060: cef0 5cbc 7dfa c03c ab92 2a3d 07a7 2c3c
00000070: a402 31bd c27f 253c bb40 493c bc98 5c3d
00000080: 0aa7 21bd 42ae 873d a851 88bd 9f55 263d
00000090: 8315 91bd 1bfe 1abd 2082 aa3d 7618 713d
000000a0: edda 9c3d 8063 ac3d 804a aabc 5934 33bd
000000b0: 87ec 823d b332 d53a 2dd3 1dbd bcb8 78bb
000000c0: 6ca8 5ebb 019e 57bb d832 abbd 2697 423b
000000d0: c211 4ebb c5bf ab3c fd4d 56bd baef 65bc
000000e0: 021d 9dbe ee62 78bd 4d30 c43d 9ad2 16bb
000000f0: f842 3f3c 7e09 22bd 108b 1d3c c95f 2d3d
00000100: 0c2b d93b ba04 a53b 44fb b63c e2c7 48bc
00000110: 4650 02bc 97d3 dabb b40b 393d c13f 3d3d
00000120: 5c6d 0fbd 3855 033c 4bd6 013d bb1b 953d
00000130: 8b23 e1bc 4254 fa3d 767c f23d 1ea0 833d
00000140: 60b0 c1bd 0a4a 193e 5a9e 003e 829d 08bd
00000150: 63b0 8ebb 9188 b3bd e6af 9dbd c9c3 193e
00000160: 46a7 52bd dfd8 0c3c 6fa5 503d 82f2 a23c
00000170: d732 543d 6a42 853d 62c9 11bd a92a a4bc
00000180: dc70 083e 9638 df3c 54cd cdbd b401 6e3c
00000190: aea9 a0bc 0e38 2ebe c837 983a 5a30 1c3d
000001a0: be35 d1bd 352b 06be 05fe 8ebd fb3c 21bc
000001b0: 2108 6cbc 38f6 31bc 27af 05be 72a7 7bbd
000001c0: bba3 65bc badc 6ebe a023 f13d 2095 6bbd
000001d0: 0208 aebc e9a3 083c 8190 ae3d b756 debd
000001e0: 7826 babc 880d 1a3d 3140 49bd ac7c c9bd
000001f0: bb5c babc c5b2 a03d b49d 56bd 3719 d3bc
00000200: 72bd 743d 16fb d1bc 5e75 1cbd ae03 f53d
00000210: b3b9 9a3d 15ca 4ebc ef5c 1a3d ffdb 1c3d
00000220: f2e0 3f3d 438f a13c ef93 993c c048 9b3c
00000230: 8789 953c 0cd4 b0bc 49d7 9e3c c7b1 ae3c
00000240: d041 35bc 03fd 9d3c 253e 70bc 054d 99bd
00000250: 3ca6 13bb be36 923c eede f1bb 1693 673b
00000260: 97d6 c4ba 5cf4 e5bb 1812 e5bb a3c7 7cbb
00000270: a7eb 8c3b 46b8 a1bc 2f98 5abc 08fa 46bc
00000280: c8af 08bc 484f f13c b686 49bd 70b7 96bb
00000290: a038 febb 5a56 67bc e6eb 4539 018b 483c
000002a0: 2eff e93c 63e9 423c 4569 333c 4949 31bb
000002b0: 38c7 163d c84a 44bc 6e85 41bc e6b1 823c
000002c0: 75b2 c1bc b53e 3dbd 7fd3 92bd 74c7 f83c
000002d0: 501d cd3c 4063 e53d e399 87bd 6995 98bd
000002e0: 2157 773c d6e7 3b3c 07a5 94bc a848 563b
000002f0: d3d2 0bbe e479 8fbb 9500 c83d ba61 ec3d
00000300: 6ce0 38bd 2dd2 253d a275 c13c 1905 6c3d
00000310: c3de 873d cd44 91bc fdaa 35bd 80b4 d63d
00000320: 7b5b 76ba 81a6 37be 1dfb 5bbd cc67 163e
00000330: 250c 9abc d942 423c 2b60 07bc 24a5 fabc
00000340: 43bd 45bc cd4f 92b8 704a 013a 3c9e b63d
00000350: 4c2b dd3d 3755 e7bd ac96 07be 98da 12bd
00000360: 0cec 0a3e 8f14 3c3b cac5 a13d 0a10 203b
00000370: a016 fa3d 276b 523d 5194 213e 294a e2bd
00000380: 9f91 243c
-0.03901168 0.07914688 -0.040263973 -0.044702217 0.001329885 0.015142125 -0.04457975 -0.03979685
-0.08257835 -0.056713138 -0.0784654 0.013685716 -0.012272943 -0.02156946 -0.039093256 -0.0023778707
-0.013551413 0.016056504 0.05781727 0.036963604 0.030529007 -0.028299982 -0.026260799 -0.015371857
-0.013485147 0.023556942 0.04164378 0.010537869 -0.04321541 0.010101261 0.012283499 0.053856596
-0.03946594 0.06625034 -0.066562 0.040609 -0.07084181 -0.03783999 0.083256006 0.05886122
0.07658944 0.084174156 -0.020787477 -0.043751094 0.0639277 0.001626572 -0.03853147 -0.0037951907
-0.00339749 -0.0032900574 -0.08359307 0.0029692142 -0.003144369 0.020965466 -0.05232047 -0.014034206
-0.30686194 -0.06064122 0.09579525 -0.0023013712 0.011673681 -0.039559834 0.009615675 0.042327676
0.006627446 0.005035964 0.02233661 -0.012254687 -0.007953709 -0.0066780555 0.045177177 0.04620338
-0.035016403 0.008015923 0.031698506 0.0728068 -0.027482769 0.12223102 0.11840145 0.06427024
-0.09457469 0.1496965 0.12560406 -0.033353336 -0.004354523 -0.08766282 -0.076995656 0.15016092
-0.051429056 0.008596628 0.05093902 0.019891027 0.051806297 0.06506808 -0.035592444 -0.020039873
0.13324302 0.027248662 -0.10048929 0.014526773 -0.01961216 -0.1701357 0.0011613304 0.03813205
-0.10215329 -0.1310242 -0.06982044 -0.009841199 -0.014406235 -0.010861926 -0.13055097 -0.061438985
-0.014016087 -0.23326388 0.11774373 -0.057515264 -0.021244053 0.0083398605 0.08523656 -0.10856383
-0.022723421 0.03761056 -0.049133483 -0.098382324 -0.022749295 0.078465976 -0.05239649 -0.02576886
0.05975098 -0.025632422 -0.038197868 0.119635925 0.075549506 -0.012621422 0.037686285 0.038295742
0.046845384 0.019721633 0.018747298 0.018955588 0.018254055 -0.021585487 0.019389765 0.021325005
-0.011063054 0.019285684 -0.014663254 -0.074853934 -0.0022529503 0.017848369 -0.0073813116 0.0035335473
-0.0015017566 -0.0070176553 -0.0069906823 -0.0038571141 0.004300553 -0.019741189 -0.013341947 -0.012144573
-0.008342691 0.02945675 -0.049200736 -0.004599504 -0.007758215 -0.014119709 0.00018875263 0.012240172
0.028564062 0.011896464 0.010950391 -0.0027051738 0.036811084 -0.01198072 -0.011811597 0.01595397
-0.023644665 -0.04620238 -0.07169246 0.030368544 0.025038391 0.11200571 -0.066211484 -0.07450373
0.015096457 0.011468848 -0.018145097 0.0032697115 -0.13654642 -0.004378544 0.09765736 0.11542077
-0.0451359 0.040483642 0.023615662 0.05762205 0.06634285 -0.017733002 -0.04435252 0.104836464
-0.0009397787 -0.1793461 -0.053706277 0.14688033 -0.01880462 0.011856758 -0.008262674 -0.030596323
-0.012069049 -6.9766866e-05 0.00049320515 0.089168996 0.10799274 -0.1129555 -0.1324107 -0.035853
0.13566607 0.0028698777 0.078990534 0.0024423623 0.122113466 0.05137172 0.15779234 -0.11049301
0.010044484

coastline_left.6.bias f4 [15]
00000000: b3bf dd3c 7625 1c3c da3e e2bb 996c 4e3c
00000010: 78ce 8abb 861a 023e ba78 1f3e 5ff9 9ebd
00000020: 416f 4a3d 22be abbc dccb e5bc ae79 55bd
00000030: 4caa 01be 86ba 1ebb 2daa f039
0.027068948 0.009530416 -0.006904465 0.012599134 -0.004236039 0.1270543 0.15573397 -0.077624075
0.049422506 -0.020964686 -0.02805131 -0.052117996 -0.1266262 -0.0024220063 0.00045903158

coastline_left.8.weight f4 [15]
00000000: 7d2f 3e3f e012 583f 5553 533f 2fe7 633f
00000010: 1748 283f 7a2c 643f 0d2f 5e3f 0522 6a3f
00000020: 8fda 633f 5ecc 333f dde0 4d3f 9815 4f3f
00000030: ba4b 3f3f eb4c 1b3f a301 573f
0.7429121 0.844038 0.8254903 0.89024633 0.65735 0.89130366 0.86790544 0.9145816
0.8900537 0.70233715 0.8042124 0.80892324 0.74724925 0.6066424 0.8398687

coastline_left.8.bias f4 [15]
00000000: 36c3 d63c 5661 ecbc 8a49 34bc 49fb 0f3c
00000010: b338 833c 04ac d33c cebd c53c 7b0e 143d
00000020: 95ad 113d d392 be3c e0b6 92bc 2609 96bb
00000030: b30a c93c 5de9 ea3b a2a6 8f3b
0.02621613 -0.028855007 -0.011003861 0.008787938 0.016018247 0.02583886 0.024138357 0.036146622
0.03556593 0.02326337 -0.017909467 -0.0045787273 0.024541235 0.0071689324 0.004383878

coastline_left.9.weight f4 [2, 15]
00000000: 611f c8bd 6613 253e ca4d 3f3e 0696 49be
00000010: 344d 193d 3878 64be 6e52 3abe fe05 1bbe
00000020: 931e 2fbe 0a42 0e3d 371e ee3d d57a 4bbc
00000030: 690a 6ebd eccc 3d3d ff88 b9bd 2686 243d
00000040: 3b76 a0bd a4a7 ad3d 809b 12be a4ce d83c
00000050: 5f1e 0cbc b626 b13d 0b90 433e 9c57 263e
00000060: 4153 843d de37 4dbc 909f 34be feb4 c0bd
00000070: 1c7e db3c ca40 a0bd
-0.0977161 0.16120681 0.18682018 -0.19686136 0.037427142 -0.22311485 -0.18195507 -0.15139005
-0.17101507 0.03473095 0.11626857 -0.012419422 -0.058115397 0.046338007 -0.09059333 0.040166996
-0.07835051 0.084792405 -0.14317131 0.026465721 -0.008552163 0.08649962 0.19097917 0.16244358
0.06461192 -0.012525527 -0.17638993 -0.094095215 0.026793532 -0.078248575

coastline_left.9.bias f4 [2]
00000000: 2264 bf3d 284f 343e
0.09345271 0.1760832

coastline_right.0.weight f4 [15, 6]
00000000: 5cdd 11be d0f9 993c e9f0 953e 7f85 0dbc
00000010: 8e59 c7bd 398e ff3d 98e3 b03c b320 9b3d
00000020: 0ad8 32bd 10a2 893d a1d9 07be 2ed6 603e
00000030: 1bab e5bd 35ff 50be 1665 473e 30c1 39bd
00000040: 0d9f 263e 9412 b13d 9bf8 39bd 9d80 9ebd
00000050: 895a 6f3e 1de6 163c 5fd5 db3c b255 a23d
00000060: e2e9 ca3c ece2 38bc e33a bcbd 58ab 773c
00000070: 66ef aa3c b028 11bc 3960 e83e 57ba 523d
00000080: 0498 3bbe 1636 503e 14f8 a43d 7241 2b3e
00000090: f073 9c3d ca9d 3dbe 5b51 5b3d 0b23 4fbe
000000a0: bf6e 8abd 25d6 70bc a63e 03bd ddfc 20bb
000000b0: 684b e3bd 7ca4 28bc d2ea 943c 5beb 923c
000000c0: e836 76be 17e1 4d3e e8f1 ffbd 6a69 a8bd
000000d0: 5ce1 0dbe ff81 0ebd 253b 053e 78c0 433d
000000e0: 8eef e5bd 94f7 af3e 4a68 c13d faf7 783e
000000f0: c8ce eabc ebd4 56bd d4ac 073a c775 fe3a
00000100: da9a a7bc 463f aa3c caa4 8fbd de80 25be
00000110: c4ac 383d 827e 133d 197f 6abd 7c9f 0fbc
00000120: 2a8a 1e3f b7f4 1abe 4566 1dbe b651 89bd
00000130: 9c9c b43b 7c10 83be 90fb f23e e515 053e
00000140: 3427 473e 11f8 02be 62d6 41be 8e5f 963c
00000150: bb61 d1be 978d 793e e244 493d 2cf0 cf3d
00000160: 0738 10be 94cb babd
-0.14244598 0.018795878 0.29285362 -0.008637785 -0.09733878 0.12478299 0.0215929 0.07574596
-0.043663062 0.06720364 -0.13266613 0.21956703 -0.112142764 -0.20409854 0.19472155 -0.045350254
0.1627161 0.086461216 -0.045403104 -0.07739375 0.2337438 0.009210137 0.026835142 0.07926501
0.024769727 -0.011284571 -0.09190919 0.015116535 0.020866107 -0.008859798 0.45385912 0.05144724
-0.18319708 0.20333132 0.0805513 0.16724184 0.07639301 -0.18517223 0.053544383 -0.20228212
-0.067594044 -0.014699494 -0.032042168 -0.002456478 -0.11098367 -0.010293122 0.018178377 0.017934492
-0.24044383 0.20105396 -0.12497312 -0.08223231 -0.13855499 -0.034791943 0.13010843 0.047790974
-0.11227332 0.34368575 0.0944372 0.24313346 -0.028663054 -0.05244915 0.00051755947 0.0019413762
-0.020459581 0.020782124 -0.07013853 -0.1616244 0.045086637 0.03600932 -0.057250116 -0.008766051
0.6192957 -0.15132414 -0.15371044 -0.06705038 0.0055118334 -0.25598514 0.47457552 0.12996633
0.19448549 -0.12789942 -0.18929437 0.01835611 -0.40894875 0.24370418 0.049137957 0.10153231
-0.14083873 -0.09120861

coastline_right.0.bias f4 [15]
00000000: 93c4 553e d9bf 0fbe b1c0 7fbe 73fe 86be
00000010: 1527 673c e1fe 663e b7ea e43d 059b ed3b
00000020: 321e 263e 4850 bebd 4875 00bd af36 b6bd
00000030: e2cb 843e e76a 5abe 70e6 e839
0.20875768 -0.14038028 -0.2497585 -0.26366004 0.014108439 0.22558166 0.11177581 0.007251146
0.16222456 -0.09292656 -0.031361848 -0.08897149 0.259368 -0.21329843 0.00044422178

coastline_right.2.weight f4 [15]
00000000: 4da0 623f ecf7 513f 3bc5 483f 67e4 5c3f
00000010: d6f8 3b3f 3a82 523f fed1 563f f966 593f
00000020: c71c 643f 571a 4e3f e6ca 4a3f dae5 543f
00000030: 103b 623f b956 5f3f d97c 5f3f
0.8852585 0.82018924 0.7842595 0.86286014 0.7342657 0.8222996 0.8391417 0.8492275
0.8910641 0.8050894 0.7921585 0.83163226 0.8837137 0.87241703 0.8729988

coastline_right.2.bias f4 [15]
00000000: 7713 1b3b fb96 663c 2b3a 303c f8c8 c23c
00000010: 7898 223d 8de3 a1bb b573 9f3b 9411 2b3c
00000020: b1ff 17bb a357 ba3c f620 aa3c dfad b43b
00000030: d106 e7ba a9e7 05bc 9421 e9bb
0.0023662725 0.0140740825 0.010756056 0.02377747 0.039696187 -0.0049404562 0.0048660883 0.010441203
-0.0023193175 0.022746867 0.02076767 0.005513891 -0.0017625933 -0.008172908 -0.0071145985
